…
  layer {
    name: "mnist"
    type: "Data"
    top: "data"
    top: "label"
    include {
      phase: TRAIN
    }
    transform_param {
      scale: 0.004
    }
    data_param {
      source: "../mnist/mnist_train_lmdb"
      batch_size: 64
      backend: LMDB
    }
  }
  layer {
    name: "mnist"
    type: "Data"
    top: "data"
    top: "label"
    include {
      phase: TEST
    }
    transform_param {
      scale: 0.004
    }
    data_param {
      source: "../mnist/mnist_test_lmdb"
      batch_size: 100
      backend: LMDB
    }
  }
  layer {
    name: "conv1_1a"
    type: "Convolution"
    bottom: "data"
    top: "conv1_1a"
    param {
      lr_mult: 1
      decay_mult: 1
    }
    param {
      lr_mult: 1
    }
    convolution_param {
      num_output: 16
      pad: 1
      kernel_size: 3
      stride: 1
      weight_filler {
        type: "xavier"
      }
      bias_filler {
        type: "constant"
      }
    }
  }
  layer {
    name: "conv1_1b"
    type: "Convolution"
    bottom: "data"
    top: "conv1_1b"
    param {
      lr_mult: 1
      decay_mult: 1
    }
    param {
      lr_mult: 1
    }
    convolution_param {
      num_output: 16
      pad: 1
      kernel_size: 3
      stride: 1
      weight_filler {
        type: "xavier"
      }
      bias_filler {
        type: "constant"
      }
    }
  }
  layer {
    name: "conv1_1"
    type: "Eltwise"
    bottom: "conv1_1a"
    bottom: "conv1_1b"
    top: "conv1_1"
    eltwise_param {
      operation: MAX
    }
  }
  layer {
    name: "conv1_2a"
    type: "Convolution"
    bottom: "conv1_1"
    top: "conv1_2a"
    param {
      lr_mult: 1
      decay_mult: 1
    }
    param {
      lr_mult: 1
    }
    convolution_param {
      num_output: 16
      pad: 1
      kernel_size: 3
      stride: 1
      weight_filler {
        type: "xavier"
      }
      bias_filler {
        type: "constant"
      }
    }
  }
  layer {
    name: "conv1_2b"
    type: "Convolution"
    bottom: "conv1_1"
    top: "conv1_2b"
    param {
      lr_mult: 1
      decay_mult: 1
    }
    param {
      lr_mult: 1
    }
    convolution_param {
      num_output: 16
      pad: 1
      kernel_size: 3
      stride: 1
      weight_filler {
        type: "xavier"
      }
      bias_filler {
        type: "constant"
      }
    }
  }
  layer {
    name: "conv1_2"
    type: "Eltwise"
    bottom: "conv1_2a"
    bottom: "conv1_2b"
    top: "conv1_2"
    eltwise_param {
      operation: MAX
    }
  }
  layer {
    name: "pool1"
    type: "Pooling"
    bottom: "conv1_2"
    top: "pool1"
    pooling_param {
      pool: MAX
      kernel_size: 4
      stride: 2
    }
  }
  layer {
    name: "conv2_1a"
    type: "Convolution"
    bottom: "pool1"
    top: "conv2_1a"
    param {
      lr_mult: 1
      decay_mult: 1
    }
    param {
      lr_mult: 1
    }
    convolution_param {
      num_output: 16
      pad: 1
      kernel_size: 3
      stride: 1
      weight_filler {
        type: "xavier"
      }
      bias_filler {
        type: "constant"
      }
    }
  }
  layer {
    name: "conv2_1b"
    type: "Convolution"
    bottom: "pool1"
    top: "conv2_1b"
    param {
      lr_mult: 1
      decay_mult: 1
    }
    param {
      lr_mult: 1
    }
    convolution_param {
      num_output: 16
      pad: 1
      kernel_size: 3
      stride: 1
      weight_filler {
        type: "xavier"
      }
      bias_filler {
        type: "constant"
      }
    }
  }
  layer {
    name: "conv2_1"
    type: "Eltwise"
    bottom: "conv2_1a"
    bottom: "conv2_1b"
    top: "conv2_1"
    eltwise_param {
      operation: MAX
    }
  }
  layer {
    name: "conv2_2a"
    type: "Convolution"
    bottom: "conv2_1"
    top: "conv2_2a"
    param {
      lr_mult: 1
      decay_mult: 1
    }
    param {
      lr_mult: 1
    }
    convolution_param {
      num_output: 16
      pad: 1
      kernel_size: 3
      stride: 1
      weight_filler {
        type: "xavier"
      }
      bias_filler {
        type: "constant"
      }
    }
  }
  layer {
    name: "conv2_2b"
    type: "Convolution"
    bottom: "conv2_1"
    top: "conv2_2b"
    param {
      lr_mult: 1
      decay_mult: 1
    }
    param {
      lr_mult: 1
    }
    convolution_param {
      num_output: 16
      pad: 1
      kernel_size: 3
      stride: 1
      weight_filler {
        type: "xavier"
      }
      bias_filler {
        type: "constant"
      }
    }
  }
  layer {
    name: "conv2_2"
    type: "Eltwise"
    bottom: "conv2_2a"
    bottom: "conv2_2b"
    top: "conv2_2"
    eltwise_param {
      operation: MAX
    }
  }
  layer {
    name: "pool2"
    type: "Pooling"
    bottom: "conv2_2"
    top: "pool2"
    pooling_param {
      pool: MAX
      kernel_size: 4
      stride: 2
    }
  }
  layer {
    name: "conv3_1a"
    type: "Convolution"
    bottom: "pool2"
    top: "conv3_1a"
    param {
      lr_mult: 1
      decay_mult: 1
    }
    param {
      lr_mult: 1
    }
    convolution_param {
      num_output: 12
      pad: 1
      kernel_size: 3
      stride: 1
      weight_filler {
        type: "xavier"
      }
      bias_filler {
        type: "constant"
      }
    }
  }
  layer {
    name: "conv3_1b"
    type: "Convolution"
    bottom: "pool2"
    top: "conv3_1b"
    param {
      lr_mult: 1
      decay_mult: 1
    }
    param {
      lr_mult: 1
    }
    convolution_param {
      num_output: 12
      pad: 1
      kernel_size: 3
      stride: 1
      weight_filler {
        type: "xavier"
      }
      bias_filler {
        type: "constant"
      }
    }
  }
  layer {
    name: "conv3_1"
    type: "Eltwise"
    bottom: "conv3_1a"
    bottom: "conv3_1b"
    top: "conv3_1"
    eltwise_param {
      operation: MAX
    }
  }
  layer {
    name: "conv3_2a"
    type: "Convolution"
    bottom: "conv3_1"
    top: "conv3_2a"
    param {
      lr_mult: 1
      decay_mult: 1
    }
    param {
      lr_mult: 1
    }
    convolution_param {
      num_output: 12
      pad: 1
      kernel_size: 3
      stride: 1
      weight_filler {
        type: "xavier"
      }
      bias_filler {
        type: "constant"
      }
    }
  }
  layer {
    name: "conv3_2b"
    type: "Convolution"
    bottom: "conv3_1"
    top: "conv3_2b"
    param {
      lr_mult: 1
      decay_mult: 1
    }
    param {
      lr_mult: 1
    }
    convolution_param {
      num_output: 12
      pad: 1
      kernel_size: 3
      stride: 1
      weight_filler {
        type: "xavier"
      }
      bias_filler {
        type: "constant"
      }
    }
  }
  layer {
    name: "conv3_2"
    type: "Eltwise"
    bottom: "conv3_2a"
    bottom: "conv3_2b"
    top: "conv3_2"
    eltwise_param {
      operation: MAX
    }
  }
  layer {
    name: "pool3"
    type: "Pooling"
    bottom: "conv3_2"
    top: "pool3"
    pooling_param {
      pool: MAX
      kernel_size: 2
      stride: 2
    }
  }
  layer {
    name: "final_drop"
    type: "Dropout"
    bottom: "pool3"
    top: "final_drop"
    dropout_param {
      dropout_ratio: 0.3
    }
  }
  layer {
    name: "clf"
    type: "InnerProduct"
    bottom: "final_drop"
    top: "clf"
    param {
      lr_mult: 1
      decay_mult: 1
    }
    param {
      lr_mult: 1
    }
    inner_product_param {
      num_output: 10
      weight_filler {
        type: "xavier"
      }
      bias_filler {
        type: "constant"
      }
    }
  }
  layer {
    name: "accuracy"
    type: "Accuracy"
    bottom: "clf"
    bottom: "label"
    top: "accuracy"
    include {
      phase: TEST
    }
  }
  layer {
    name: "loss"
    type: "HingeLoss"
    bottom: "clf"
    bottom: "label"
    top: "loss"
    hinge_loss_param {
      norm: L1
    }
  }
}
test_initialization: false
average_loss: 40
rms_decay: 0.99
type: "RMSProp"
I1123 22:08:53.396883 12543 solver.cpp:85] Creating training net specified in net_param.
I1123 22:08:53.396991 12543 net.cpp:322] The NetState phase (0) differed from the phase (1) specified by a rule in layer mnist
I1123 22:08:53.397029 12543 net.cpp:322] The NetState phase (0) differed from the phase (1) specified by a rule in layer accuracy
I1123 22:08:53.397238 12543 net.cpp:49] Initializing net from parameters: 
name: "FitNet_MNIST"
state {
  phase: TRAIN
}
layer {
  name: "mnist"
  type: "Data"
  top: "data"
  top: "label"
  include {
    phase: TRAIN
  }
  transform_param {
    scale: 0.004
  }
  data_param {
    source: "../mnist/mnist_train_lmdb"
    batch_size: 64
    backend: LMDB
  }
}
layer {
  name: "conv1_1a"
  type: "Convolution"
  bottom: "data"
  top: "conv1_1a"
  param {
    lr_mult: 1
    decay_mult: 1
  }
  param {
    lr_mult: 1
  }
  convolution_param {
    num_output: 16
    pad: 1
    kernel_size: 3
    stride: 1
    weight_filler {
      type: "xavier"
    }
    bias_filler {
      type: "constant"
    }
  }
}
layer {
  name: "conv1_1b"
  type: "Convolution"
  bottom: "data"
  top: "conv1_1b"
  param {
    lr_mult: 1
    decay_mult: 1
  }
  param {
    lr_mult: 1
  }
  convolution_param {
    num_output: 16
    pad: 1
    kernel_size: 3
    stride: 1
    weight_filler {
      type: "xavier"
    }
    bias_filler {
      type: "constant"
    }
  }
}
layer {
  name: "conv1_1"
  type: "Eltwise"
  bottom: "conv1_1a"
  bottom: "conv1_1b"
  top: "conv1_1"
  eltwise_param {
    operation: MAX
  }
}
layer {
  name: "conv1_2a"
  type: "Convolution"
  bottom: "conv1_1"
  top: "conv1_2a"
  param {
    lr_mult: 1
    decay_mult: 1
  }
  param {
    lr_mult: 1
  }
  convolution_param {
    num_output: 16
    pad: 1
    kernel_size: 3
    stride: 1
    weight_filler {
      type: "xavier"
    }
    bias_filler {
      type: "constant"
    }
  }
}
layer {
  name: "conv1_2b"
  type: "Convolution"
  bottom: "conv1_1"
  top: "conv1_2b"
  param {
    lr_mult: 1
    decay_mult: 1
  }
  param {
    lr_mult: 1
  }
  convolution_param {
    num_output: 16
    pad: 1
    kernel_size: 3
    stride: 1
    weight_filler {
      type: "xavier"
    }
    bias_filler {
      type: "constant"
    }
  }
}
layer {
  name: "conv1_2"
  type: "Eltwise"
  bottom: "conv1_2a"
  bottom: "conv1_2b"
  top: "conv1_2"
  eltwise_param {
    operation: MAX
  }
}
layer {
  name: "pool1"
  type: "Pooling"
  bottom: "conv1_2"
  top: "pool1"
  pooling_param {
    pool: MAX
    kernel_size: 4
    stride: 2
  }
}
layer {
  name: "conv2_1a"
  type: "Convolution"
  bottom: "pool1"
  top: "conv2_1a"
  param {
    lr_mult: 1
    decay_mult: 1
  }
  param {
    lr_mult: 1
  }
  convolution_param {
    num_output: 16
    pad: 1
    kernel_size: 3
    stride: 1
    weight_filler {
      type: "xavier"
    }
    bias_filler {
      type: "constant"
    }
  }
}
layer {
  name: "conv2_1b"
  type: "Convolution"
  bottom: "pool1"
  top: "conv2_1b"
  param {
    lr_mult: 1
    decay_mult: 1
  }
  param {
    lr_mult: 1
  }
  convolution_param {
    num_output: 16
    pad: 1
    kernel_size: 3
    stride: 1
    weight_filler {
      type: "xavier"
    }
    bias_filler {
      type: "constant"
    }
  }
}
layer {
  name: "conv2_1"
  type: "Eltwise"
  bottom: "conv2_1a"
  bottom: "conv2_1b"
  top: "conv2_1"
  eltwise_param {
    operation: MAX
  }
}
layer {
  name: "conv2_2a"
  type: "Convolution"
  bottom: "conv2_1"
  top: "conv2_2a"
  param {
    lr_mult: 1
    decay_mult: 1
  }
  param {
    lr_mult: 1
  }
  convolution_param {
    num_output: 16
    pad: 1
    kernel_size: 3
    stride: 1
    weight_filler {
      type: "xavier"
    }
    bias_filler {
      type: "constant"
    }
  }
}
layer {
  name: "conv2_2b"
  type: "Convolution"
  bottom: "conv2_1"
  top: "conv2_2b"
  param {
    lr_mult: 1
    decay_mult: 1
  }
  param {
    lr_mult: 1
  }
  convolution_param {
    num_output: 16
    pad: 1
    kernel_size: 3
    stride: 1
    weight_filler {
      type: "xavier"
    }
    bias_filler {
      type: "constant"
    }
  }
}
layer {
  name: "conv2_2"
  type: "Eltwise"
  bottom: "conv2_2a"
  bottom: "conv2_2b"
  top: "conv2_2"
  eltwise_param {
    operation: MAX
  }
}
layer {
  name: "pool2"
  type: "Pooling"
  bottom: "conv2_2"
  top: "pool2"
  pooling_param {
    pool: MAX
    kernel_size: 4
    stride: 2
  }
}
layer {
  name: "conv3_1a"
  type: "Convolution"
  bottom: "pool2"
  top: "conv3_1a"
  param {
    lr_mult: 1
    decay_mult: 1
  }
  param {
    lr_mult: 1
  }
  convolution_param {
    num_output: 12
    pad: 1
    kernel_size: 3
    stride: 1
    weight_filler {
      type: "xavier"
    }
    bias_filler {
      type: "constant"
    }
  }
}
layer {
  name: "conv3_1b"
  type: "Convolution"
  bottom: "pool2"
  top: "conv3_1b"
  param {
    lr_mult: 1
    decay_mult: 1
  }
  param {
    lr_mult: 1
  }
  convolution_param {
    num_output: 12
    pad: 1
    kernel_size: 3
    stride: 1
    weight_filler {
      type: "xavier"
    }
    bias_filler {
      type: "constant"
    }
  }
}
layer {
  name: "conv3_1"
  type: "Eltwise"
  bottom: "conv3_1a"
  bottom: "conv3_1b"
  top: "conv3_1"
  eltwise_param {
    operation: MAX
  }
}
layer {
  name: "conv3_2a"
  type: "Convolution"
  bottom: "conv3_1"
  top: "conv3_2a"
  param {
    lr_mult: 1
    decay_mult: 1
  }
  param {
    lr_mult: 1
  }
  convolution_param {
    num_output: 12
    pad: 1
    kernel_size: 3
    stride: 1
    weight_filler {
      type: "xavier"
    }
    bias_filler {
      type: "constant"
    }
  }
}
layer {
  name: "conv3_2b"
  type: "Convolution"
  bottom: "conv3_1"
  top: "conv3_2b"
  param {
    lr_mult: 1
    decay_mult: 1
  }
  param {
    lr_mult: 1
  }
  convolution_param {
    num_output: 12
    pad: 1
    kernel_size: 3
    stride: 1
    weight_filler {
      type: "xavier"
    }
    bias_filler {
      type: "constant"
    }
  }
}
layer {
  name: "conv3_2"
  type: "Eltwise"
  bottom: "conv3_2a"
  bottom: "conv3_2b"
  top: "conv3_2"
  eltwise_param {
    operation: MAX
  }
}
layer {
  name: "pool3"
  type: "Pooling"
  bottom: "conv3_2"
  top: "pool3"
  pooling_param {
    pool: MAX
    kernel_size: 2
    stride: 2
  }
}
layer {
  name: "final_drop"
  type: "Dropout"
  bottom: "pool3"
  top: "final_drop"
  dropout_param {
    dropout_ratio: 0.3
  }
}
layer {
  name: "clf"
  type: "InnerProduct"
  bottom: "final_drop"
  top: "clf"
  param {
    lr_mult: 1
    decay_mult: 1
  }
  param {
    lr_mult: 1
  }
  inner_product_param {
    num_output: 10
    weight_filler {
      type: "xavier"
    }
    bias_filler {
      type: "constant"
    }
  }
}
layer {
  name: "loss"
  type: "HingeLoss"
  bottom: "clf"
  bottom: "label"
  top: "loss"
  hinge_loss_param {
    norm: L1
  }
}
I1123 22:08:53.397440 12543 layer_factory.hpp:76] Creating layer mnist
I1123 22:08:53.398068 12543 net.cpp:106] Creating Layer mnist
I1123 22:08:53.398079 12543 net.cpp:411] mnist -> data
I1123 22:08:53.398113 12543 net.cpp:411] mnist -> label
I1123 22:08:53.398733 12547 db_lmdb.cpp:38] Opened lmdb ../mnist/mnist_train_lmdb
I1123 22:08:53.404530 12543 data_layer.cpp:41] output data size: 64,1,28,28
I1123 22:08:53.405216 12543 net.cpp:150] Setting up mnist
I1123 22:08:53.405232 12543 net.cpp:157] Top shape: 64 1 28 28 (50176)
I1123 22:08:53.405239 12543 net.cpp:157] Top shape: 64 (64)
I1123 22:08:53.405243 12543 net.cpp:165] Memory required for data: 200960
I1123 22:08:53.405254 12543 layer_factory.hpp:76] Creating layer data_mnist_0_split
I1123 22:08:53.405269 12543 net.cpp:106] Creating Layer data_mnist_0_split
I1123 22:08:53.405277 12543 net.cpp:454] data_mnist_0_split <- data
I1123 22:08:53.405288 12543 net.cpp:411] data_mnist_0_split -> data_mnist_0_split_0
I1123 22:08:53.405300 12543 net.cpp:411] data_mnist_0_split -> data_mnist_0_split_1
I1123 22:08:53.405339 12543 net.cpp:150] Setting up data_mnist_0_split
I1123 22:08:53.405347 12543 net.cpp:157] Top shape: 64 1 28 28 (50176)
I1123 22:08:53.405352 12543 net.cpp:157] Top shape: 64 1 28 28 (50176)
I1123 22:08:53.405365 12543 net.cpp:165] Memory required for data: 602368
I1123 22:08:53.405370 12543 layer_factory.hpp:76] Creating layer conv1_1a
I1123 22:08:53.405388 12543 net.cpp:106] Creating Layer conv1_1a
I1123 22:08:53.405393 12543 net.cpp:454] conv1_1a <- data_mnist_0_split_0
I1123 22:08:53.405402 12543 net.cpp:411] conv1_1a -> conv1_1a
I1123 22:08:53.508100 12543 net.cpp:150] Setting up conv1_1a
I1123 22:08:53.508126 12543 net.cpp:157] Top shape: 64 16 28 28 (802816)
I1123 22:08:53.508129 12543 net.cpp:165] Memory required for data: 3813632
I1123 22:08:53.508150 12543 layer_factory.hpp:76] Creating layer conv1_1b
I1123 22:08:53.508167 12543 net.cpp:106] Creating Layer conv1_1b
I1123 22:08:53.508172 12543 net.cpp:454] conv1_1b <- data_mnist_0_split_1
I1123 22:08:53.508180 12543 net.cpp:411] conv1_1b -> conv1_1b
I1123 22:08:53.509778 12543 net.cpp:150] Setting up conv1_1b
I1123 22:08:53.509789 12543 net.cpp:157] Top shape: 64 16 28 28 (802816)
I1123 22:08:53.509793 12543 net.cpp:165] Memory required for data: 7024896
I1123 22:08:53.509804 12543 layer_factory.hpp:76] Creating layer conv1_1
I1123 22:08:53.509812 12543 net.cpp:106] Creating Layer conv1_1
I1123 22:08:53.509816 12543 net.cpp:454] conv1_1 <- conv1_1a
I1123 22:08:53.509822 12543 net.cpp:454] conv1_1 <- conv1_1b
I1123 22:08:53.509829 12543 net.cpp:411] conv1_1 -> conv1_1
I1123 22:08:53.509865 12543 net.cpp:150] Setting up conv1_1
I1123 22:08:53.509872 12543 net.cpp:157] Top shape: 64 16 28 28 (802816)
I1123 22:08:53.509876 12543 net.cpp:165] Memory required for data: 10236160
I1123 22:08:53.509881 12543 layer_factory.hpp:76] Creating layer conv1_1_conv1_1_0_split
I1123 22:08:53.509887 12543 net.cpp:106] Creating Layer conv1_1_conv1_1_0_split
I1123 22:08:53.509891 12543 net.cpp:454] conv1_1_conv1_1_0_split <- conv1_1
I1123 22:08:53.509897 12543 net.cpp:411] conv1_1_conv1_1_0_split -> conv1_1_conv1_1_0_split_0
I1123 22:08:53.509904 12543 net.cpp:411] conv1_1_conv1_1_0_split -> conv1_1_conv1_1_0_split_1
I1123 22:08:53.509934 12543 net.cpp:150] Setting up conv1_1_conv1_1_0_split
I1123 22:08:53.509941 12543 net.cpp:157] Top shape: 64 16 28 28 (802816)
I1123 22:08:53.509948 12543 net.cpp:157] Top shape: 64 16 28 28 (802816)
I1123 22:08:53.509950 12543 net.cpp:165] Memory required for data: 16658688
I1123 22:08:53.509954 12543 layer_factory.hpp:76] Creating layer conv1_2a
I1123 22:08:53.509963 12543 net.cpp:106] Creating Layer conv1_2a
I1123 22:08:53.509968 12543 net.cpp:454] conv1_2a <- conv1_1_conv1_1_0_split_0
I1123 22:08:53.509974 12543 net.cpp:411] conv1_2a -> conv1_2a
I1123 22:08:53.511999 12543 net.cpp:150] Setting up conv1_2a
I1123 22:08:53.512012 12543 net.cpp:157] Top shape: 64 16 28 28 (802816)
I1123 22:08:53.512017 12543 net.cpp:165] Memory required for data: 19869952
I1123 22:08:53.512027 12543 layer_factory.hpp:76] Creating layer conv1_2b
I1123 22:08:53.512038 12543 net.cpp:106] Creating Layer conv1_2b
I1123 22:08:53.512043 12543 net.cpp:454] conv1_2b <- conv1_1_conv1_1_0_split_1
I1123 22:08:53.512053 12543 net.cpp:411] conv1_2b -> conv1_2b
I1123 22:08:53.513821 12543 net.cpp:150] Setting up conv1_2b
I1123 22:08:53.513833 12543 net.cpp:157] Top shape: 64 16 28 28 (802816)
I1123 22:08:53.513838 12543 net.cpp:165] Memory required for data: 23081216
I1123 22:08:53.513845 12543 layer_factory.hpp:76] Creating layer conv1_2
I1123 22:08:53.513856 12543 net.cpp:106] Creating Layer conv1_2
I1123 22:08:53.513861 12543 net.cpp:454] conv1_2 <- conv1_2a
I1123 22:08:53.513866 12543 net.cpp:454] conv1_2 <- conv1_2b
I1123 22:08:53.513873 12543 net.cpp:411] conv1_2 -> conv1_2
I1123 22:08:53.513909 12543 net.cpp:150] Setting up conv1_2
I1123 22:08:53.513917 12543 net.cpp:157] Top shape: 64 16 28 28 (802816)
I1123 22:08:53.513921 12543 net.cpp:165] Memory required for data: 26292480
I1123 22:08:53.513924 12543 layer_factory.hpp:76] Creating layer pool1
I1123 22:08:53.513934 12543 net.cpp:106] Creating Layer pool1
I1123 22:08:53.513938 12543 net.cpp:454] pool1 <- conv1_2
I1123 22:08:53.513943 12543 net.cpp:411] pool1 -> pool1
I1123 22:08:53.514497 12543 net.cpp:150] Setting up pool1
I1123 22:08:53.514515 12543 net.cpp:157] Top shape: 64 16 13 13 (173056)
I1123 22:08:53.514519 12543 net.cpp:165] Memory required for data: 26984704
I1123 22:08:53.514523 12543 layer_factory.hpp:76] Creating layer pool1_pool1_0_split
I1123 22:08:53.514530 12543 net.cpp:106] Creating Layer pool1_pool1_0_split
I1123 22:08:53.514534 12543 net.cpp:454] pool1_pool1_0_split <- pool1
I1123 22:08:53.514539 12543 net.cpp:411] pool1_pool1_0_split -> pool1_pool1_0_split_0
I1123 22:08:53.514549 12543 net.cpp:411] pool1_pool1_0_split -> pool1_pool1_0_split_1
I1123 22:08:53.514582 12543 net.cpp:150] Setting up pool1_pool1_0_split
I1123 22:08:53.514590 12543 net.cpp:157] Top shape: 64 16 13 13 (173056)
I1123 22:08:53.514595 12543 net.cpp:157] Top shape: 64 16 13 13 (173056)
I1123 22:08:53.514598 12543 net.cpp:165] Memory required for data: 28369152
I1123 22:08:53.514602 12543 layer_factory.hpp:76] Creating layer conv2_1a
I1123 22:08:53.514611 12543 net.cpp:106] Creating Layer conv2_1a
I1123 22:08:53.514616 12543 net.cpp:454] conv2_1a <- pool1_pool1_0_split_0
I1123 22:08:53.514623 12543 net.cpp:411] conv2_1a -> conv2_1a
I1123 22:08:53.516355 12543 net.cpp:150] Setting up conv2_1a
I1123 22:08:53.516366 12543 net.cpp:157] Top shape: 64 16 13 13 (173056)
I1123 22:08:53.516369 12543 net.cpp:165] Memory required for data: 29061376
I1123 22:08:53.516382 12543 layer_factory.hpp:76] Creating layer conv2_1b
I1123 22:08:53.516392 12543 net.cpp:106] Creating Layer conv2_1b
I1123 22:08:53.516398 12543 net.cpp:454] conv2_1b <- pool1_pool1_0_split_1
I1123 22:08:53.516407 12543 net.cpp:411] conv2_1b -> conv2_1b
I1123 22:08:53.518193 12543 net.cpp:150] Setting up conv2_1b
I1123 22:08:53.518203 12543 net.cpp:157] Top shape: 64 16 13 13 (173056)
I1123 22:08:53.518208 12543 net.cpp:165] Memory required for data: 29753600
I1123 22:08:53.518216 12543 layer_factory.hpp:76] Creating layer conv2_1
I1123 22:08:53.518224 12543 net.cpp:106] Creating Layer conv2_1
I1123 22:08:53.518229 12543 net.cpp:454] conv2_1 <- conv2_1a
I1123 22:08:53.518234 12543 net.cpp:454] conv2_1 <- conv2_1b
I1123 22:08:53.518241 12543 net.cpp:411] conv2_1 -> conv2_1
I1123 22:08:53.518276 12543 net.cpp:150] Setting up conv2_1
I1123 22:08:53.518283 12543 net.cpp:157] Top shape: 64 16 13 13 (173056)
I1123 22:08:53.518287 12543 net.cpp:165] Memory required for data: 30445824
I1123 22:08:53.518291 12543 layer_factory.hpp:76] Creating layer conv2_1_conv2_1_0_split
I1123 22:08:53.518298 12543 net.cpp:106] Creating Layer conv2_1_conv2_1_0_split
I1123 22:08:53.518302 12543 net.cpp:454] conv2_1_conv2_1_0_split <- conv2_1
I1123 22:08:53.518308 12543 net.cpp:411] conv2_1_conv2_1_0_split -> conv2_1_conv2_1_0_split_0
I1123 22:08:53.518316 12543 net.cpp:411] conv2_1_conv2_1_0_split -> conv2_1_conv2_1_0_split_1
I1123 22:08:53.518348 12543 net.cpp:150] Setting up conv2_1_conv2_1_0_split
I1123 22:08:53.518354 12543 net.cpp:157] Top shape: 64 16 13 13 (173056)
I1123 22:08:53.518360 12543 net.cpp:157] Top shape: 64 16 13 13 (173056)
I1123 22:08:53.518363 12543 net.cpp:165] Memory required for data: 31830272
I1123 22:08:53.518368 12543 layer_factory.hpp:76] Creating layer conv2_2a
I1123 22:08:53.518376 12543 net.cpp:106] Creating Layer conv2_2a
I1123 22:08:53.518380 12543 net.cpp:454] conv2_2a <- conv2_1_conv2_1_0_split_0
I1123 22:08:53.518388 12543 net.cpp:411] conv2_2a -> conv2_2a
I1123 22:08:53.520169 12543 net.cpp:150] Setting up conv2_2a
I1123 22:08:53.520184 12543 net.cpp:157] Top shape: 64 16 13 13 (173056)
I1123 22:08:53.520189 12543 net.cpp:165] Memory required for data: 32522496
I1123 22:08:53.520197 12543 layer_factory.hpp:76] Creating layer conv2_2b
I1123 22:08:53.520211 12543 net.cpp:106] Creating Layer conv2_2b
I1123 22:08:53.520217 12543 net.cpp:454] conv2_2b <- conv2_1_conv2_1_0_split_1
I1123 22:08:53.520226 12543 net.cpp:411] conv2_2b -> conv2_2b
I1123 22:08:53.522012 12543 net.cpp:150] Setting up conv2_2b
I1123 22:08:53.522027 12543 net.cpp:157] Top shape: 64 16 13 13 (173056)
I1123 22:08:53.522029 12543 net.cpp:165] Memory required for data: 33214720
I1123 22:08:53.522056 12543 layer_factory.hpp:76] Creating layer conv2_2
I1123 22:08:53.522068 12543 net.cpp:106] Creating Layer conv2_2
I1123 22:08:53.522073 12543 net.cpp:454] conv2_2 <- conv2_2a
I1123 22:08:53.522078 12543 net.cpp:454] conv2_2 <- conv2_2b
I1123 22:08:53.522085 12543 net.cpp:411] conv2_2 -> conv2_2
I1123 22:08:53.522135 12543 net.cpp:150] Setting up conv2_2
I1123 22:08:53.522164 12543 net.cpp:157] Top shape: 64 16 13 13 (173056)
I1123 22:08:53.522169 12543 net.cpp:165] Memory required for data: 33906944
I1123 22:08:53.522173 12543 layer_factory.hpp:76] Creating layer pool2
I1123 22:08:53.522182 12543 net.cpp:106] Creating Layer pool2
I1123 22:08:53.522187 12543 net.cpp:454] pool2 <- conv2_2
I1123 22:08:53.522193 12543 net.cpp:411] pool2 -> pool2
I1123 22:08:53.522804 12543 net.cpp:150] Setting up pool2
I1123 22:08:53.522815 12543 net.cpp:157] Top shape: 64 16 6 6 (36864)
I1123 22:08:53.522820 12543 net.cpp:165] Memory required for data: 34054400
I1123 22:08:53.522825 12543 layer_factory.hpp:76] Creating layer pool2_pool2_0_split
I1123 22:08:53.522832 12543 net.cpp:106] Creating Layer pool2_pool2_0_split
I1123 22:08:53.522836 12543 net.cpp:454] pool2_pool2_0_split <- pool2
I1123 22:08:53.522842 12543 net.cpp:411] pool2_pool2_0_split -> pool2_pool2_0_split_0
I1123 22:08:53.522850 12543 net.cpp:411] pool2_pool2_0_split -> pool2_pool2_0_split_1
I1123 22:08:53.522886 12543 net.cpp:150] Setting up pool2_pool2_0_split
I1123 22:08:53.522892 12543 net.cpp:157] Top shape: 64 16 6 6 (36864)
I1123 22:08:53.522897 12543 net.cpp:157] Top shape: 64 16 6 6 (36864)
I1123 22:08:53.522902 12543 net.cpp:165] Memory required for data: 34349312
I1123 22:08:53.522905 12543 layer_factory.hpp:76] Creating layer conv3_1a
I1123 22:08:53.522915 12543 net.cpp:106] Creating Layer conv3_1a
I1123 22:08:53.522920 12543 net.cpp:454] conv3_1a <- pool2_pool2_0_split_0
I1123 22:08:53.522928 12543 net.cpp:411] conv3_1a -> conv3_1a
I1123 22:08:53.524775 12543 net.cpp:150] Setting up conv3_1a
I1123 22:08:53.524785 12543 net.cpp:157] Top shape: 64 12 6 6 (27648)
I1123 22:08:53.524791 12543 net.cpp:165] Memory required for data: 34459904
I1123 22:08:53.524803 12543 layer_factory.hpp:76] Creating layer conv3_1b
I1123 22:08:53.524814 12543 net.cpp:106] Creating Layer conv3_1b
I1123 22:08:53.524821 12543 net.cpp:454] conv3_1b <- pool2_pool2_0_split_1
I1123 22:08:53.524828 12543 net.cpp:411] conv3_1b -> conv3_1b
I1123 22:08:53.526770 12543 net.cpp:150] Setting up conv3_1b
I1123 22:08:53.526782 12543 net.cpp:157] Top shape: 64 12 6 6 (27648)
I1123 22:08:53.526787 12543 net.cpp:165] Memory required for data: 34570496
I1123 22:08:53.526794 12543 layer_factory.hpp:76] Creating layer conv3_1
I1123 22:08:53.526803 12543 net.cpp:106] Creating Layer conv3_1
I1123 22:08:53.526808 12543 net.cpp:454] conv3_1 <- conv3_1a
I1123 22:08:53.526813 12543 net.cpp:454] conv3_1 <- conv3_1b
I1123 22:08:53.526819 12543 net.cpp:411] conv3_1 -> conv3_1
I1123 22:08:53.526865 12543 net.cpp:150] Setting up conv3_1
I1123 22:08:53.526873 12543 net.cpp:157] Top shape: 64 12 6 6 (27648)
I1123 22:08:53.526876 12543 net.cpp:165] Memory required for data: 34681088
I1123 22:08:53.526880 12543 layer_factory.hpp:76] Creating layer conv3_1_conv3_1_0_split
I1123 22:08:53.526887 12543 net.cpp:106] Creating Layer conv3_1_conv3_1_0_split
I1123 22:08:53.526891 12543 net.cpp:454] conv3_1_conv3_1_0_split <- conv3_1
I1123 22:08:53.526897 12543 net.cpp:411] conv3_1_conv3_1_0_split -> conv3_1_conv3_1_0_split_0
I1123 22:08:53.526904 12543 net.cpp:411] conv3_1_conv3_1_0_split -> conv3_1_conv3_1_0_split_1
I1123 22:08:53.526939 12543 net.cpp:150] Setting up conv3_1_conv3_1_0_split
I1123 22:08:53.526947 12543 net.cpp:157] Top shape: 64 12 6 6 (27648)
I1123 22:08:53.526952 12543 net.cpp:157] Top shape: 64 12 6 6 (27648)
I1123 22:08:53.526955 12543 net.cpp:165] Memory required for data: 34902272
I1123 22:08:53.526959 12543 layer_factory.hpp:76] Creating layer conv3_2a
I1123 22:08:53.526968 12543 net.cpp:106] Creating Layer conv3_2a
I1123 22:08:53.526973 12543 net.cpp:454] conv3_2a <- conv3_1_conv3_1_0_split_0
I1123 22:08:53.526990 12543 net.cpp:411] conv3_2a -> conv3_2a
I1123 22:08:53.528755 12543 net.cpp:150] Setting up conv3_2a
I1123 22:08:53.528767 12543 net.cpp:157] Top shape: 64 12 6 6 (27648)
I1123 22:08:53.528771 12543 net.cpp:165] Memory required for data: 35012864
I1123 22:08:53.528779 12543 layer_factory.hpp:76] Creating layer conv3_2b
I1123 22:08:53.528790 12543 net.cpp:106] Creating Layer conv3_2b
I1123 22:08:53.528795 12543 net.cpp:454] conv3_2b <- conv3_1_conv3_1_0_split_1
I1123 22:08:53.528805 12543 net.cpp:411] conv3_2b -> conv3_2b
I1123 22:08:53.530632 12543 net.cpp:150] Setting up conv3_2b
I1123 22:08:53.530647 12543 net.cpp:157] Top shape: 64 12 6 6 (27648)
I1123 22:08:53.530650 12543 net.cpp:165] Memory required for data: 35123456
I1123 22:08:53.530658 12543 layer_factory.hpp:76] Creating layer conv3_2
I1123 22:08:53.530668 12543 net.cpp:106] Creating Layer conv3_2
I1123 22:08:53.530671 12543 net.cpp:454] conv3_2 <- conv3_2a
I1123 22:08:53.530678 12543 net.cpp:454] conv3_2 <- conv3_2b
I1123 22:08:53.530683 12543 net.cpp:411] conv3_2 -> conv3_2
I1123 22:08:53.530724 12543 net.cpp:150] Setting up conv3_2
I1123 22:08:53.530731 12543 net.cpp:157] Top shape: 64 12 6 6 (27648)
I1123 22:08:53.530735 12543 net.cpp:165] Memory required for data: 35234048
I1123 22:08:53.530738 12543 layer_factory.hpp:76] Creating layer pool3
I1123 22:08:53.530746 12543 net.cpp:106] Creating Layer pool3
I1123 22:08:53.530750 12543 net.cpp:454] pool3 <- conv3_2
I1123 22:08:53.530757 12543 net.cpp:411] pool3 -> pool3
I1123 22:08:53.531308 12543 net.cpp:150] Setting up pool3
I1123 22:08:53.531319 12543 net.cpp:157] Top shape: 64 12 3 3 (6912)
I1123 22:08:53.531323 12543 net.cpp:165] Memory required for data: 35261696
I1123 22:08:53.531327 12543 layer_factory.hpp:76] Creating layer final_drop
I1123 22:08:53.531335 12543 net.cpp:106] Creating Layer final_drop
I1123 22:08:53.531340 12543 net.cpp:454] final_drop <- pool3
I1123 22:08:53.531347 12543 net.cpp:411] final_drop -> final_drop
I1123 22:08:53.531390 12543 net.cpp:150] Setting up final_drop
I1123 22:08:53.531399 12543 net.cpp:157] Top shape: 64 12 3 3 (6912)
I1123 22:08:53.531402 12543 net.cpp:165] Memory required for data: 35289344
I1123 22:08:53.531406 12543 layer_factory.hpp:76] Creating layer clf
I1123 22:08:53.531421 12543 net.cpp:106] Creating Layer clf
I1123 22:08:53.531426 12543 net.cpp:454] clf <- final_drop
I1123 22:08:53.531435 12543 net.cpp:411] clf -> clf
I1123 22:08:53.531535 12543 net.cpp:150] Setting up clf
I1123 22:08:53.531543 12543 net.cpp:157] Top shape: 64 10 (640)
I1123 22:08:53.531546 12543 net.cpp:165] Memory required for data: 35291904
I1123 22:08:53.531554 12543 layer_factory.hpp:76] Creating layer loss
I1123 22:08:53.531561 12543 net.cpp:106] Creating Layer loss
I1123 22:08:53.531565 12543 net.cpp:454] loss <- clf
I1123 22:08:53.531570 12543 net.cpp:454] loss <- label
I1123 22:08:53.531579 12543 net.cpp:411] loss -> loss
I1123 22:08:53.531607 12543 net.cpp:150] Setting up loss
…
I1123 22:08:53.531918 12543 solver.cpp:180] Creating test net (#0) specified by net_param
I1123 22:08:53.531958 12543 net.cpp:322] The NetState phase (1) differed from the phase (0) specified by a rule in layer mnist
I1123 22:08:53.532117 12543 net.cpp:49] Initializing net from parameters: 
name: "FitNet_MNIST"
state {
  phase: TEST
}
layer {
  name: "mnist"
  type: "Data"
  top: "data"
  top: "label"
  include {
    phase: TEST
  }
  transform_param {
    scale: 0.004
  }
  data_param {
    source: "../mnist/mnist_test_lmdb"
    batch_size: 100
    backend: LMDB
  }
}
layer {
  name: "conv1_1a"
  type: "Convolution"
  bottom: "data"
  top: "conv1_1a"
  param {
    lr_mult: 1
    decay_mult: 1
  }
  param {
    lr_mult: 1
  }
  convolution_param {
    num_output: 16
    pad: 1
    kernel_size: 3
    stride: 1
    weight_filler {
      type: "xavier"
    }
    bias_filler {
      type: "constant"
    }
  }
}
layer {
  name: "conv1_1b"
  type: "Convolution"
  bottom: "data"
  top: "conv1_1b"
  param {
    lr_mult: 1
    decay_mult: 1
  }
  param {
    lr_mult: 1
  }
  convolution_param {
    num_output: 16
    pad: 1
    kernel_size: 3
    stride: 1
    weight_filler {
      type: "xavier"
    }
    bias_filler {
      type: "constant"
    }
  }
}
layer {
  name: "conv1_1"
  type: "Eltwise"
  bottom: "conv1_1a"
  bottom: "conv1_1b"
  top: "conv1_1"
  eltwise_param {
    operation: MAX
  }
}
layer {
  name: "conv1_2a"
  type: "Convolution"
  bottom: "conv1_1"
  top: "conv1_2a"
  param {
    lr_mult: 1
    decay_mult: 1
  }
  param {
    lr_mult: 1
  }
  convolution_param {
    num_output: 16
    pad: 1
    kernel_size: 3
    stride: 1
    weight_filler {
      type: "xavier"
    }
    bias_filler {
      type: "constant"
    }
  }
}
layer {
  name: "conv1_2b"
  type: "Convolution"
  bottom: "conv1_1"
  top: "conv1_2b"
  param {
    lr_mult: 1
    decay_mult: 1
  }
  param {
    lr_mult: 1
  }
  convolution_param {
    num_output: 16
    pad: 1
    kernel_size: 3
    stride: 1
    weight_filler {
      type: "xavier"
    }
    bias_filler {
      type: "constant"
    }
  }
}
layer {
  name: "conv1_2"
  type: "Eltwise"
  bottom: "conv1_2a"
  bottom: "conv1_2b"
  top: "conv1_2"
  eltwise_param {
    operation: MAX
  }
}
layer {
  name: "pool1"
  type: "Pooling"
  bottom: "conv1_2"
  top: "pool1"
  pooling_param {
    pool: MAX
    kernel_size: 4
    stride: 2
  }
}
layer {
  name: "conv2_1a"
  type: "Convolution"
  bottom: "pool1"
  top: "conv2_1a"
  param {
    lr_mult: 1
    decay_mult: 1
  }
  param {
    lr_mult: 1
  }
  convolution_param {
    num_output: 16
    pad: 1
    kernel_size: 3
    stride: 1
    weight_filler {
      type: "xavier"
    }
    bias_filler {
      type: "constant"
    }
  }
}
layer {
  name: "conv2_1b"
  type: "Convolution"
  bottom: "pool1"
  top: "conv2_1b"
  param {
    lr_mult: 1
    decay_mult: 1
  }
  param {
    lr_mult: 1
  }
  convolution_param {
    num_output: 16
    pad: 1
    kernel_size: 3
    stride: 1
    weight_filler {
      type: "xavier"
    }
    bias_filler {
      type: "constant"
    }
  }
}
layer {
  name: "conv2_1"
  type: "Eltwise"
  bottom: "conv2_1a"
  bottom: "conv2_1b"
  top: "conv2_1"
  eltwise_param {
    operation: MAX
  }
}
layer {
  name: "conv2_2a"
  type: "Convolution"
  bottom: "conv2_1"
  top: "conv2_2a"
  param {
    lr_mult: 1
    decay_mult: 1
  }
  param {
    lr_mult: 1
  }
  convolution_param {
    num_output: 16
    pad: 1
    kernel_size: 3
    stride: 1
    weight_filler {
      type: "xavier"
    }
    bias_filler {
      type: "constant"
    }
  }
}
layer {
  name: "conv2_2b"
  type: "Convolution"
  bottom: "conv2_1"
  top: "conv2_2b"
  param {
    lr_mult: 1
    decay_mult: 1
  }
  param {
    lr_mult: 1
  }
  convolution_param {
    num_output: 16
    pad: 1
    kernel_size: 3
    stride: 1
    weight_filler {
      type: "xavier"
    }
    bias_filler {
      type: "constant"
    }
  }
}
layer {
  name: "conv2_2"
  type: "Eltwise"
  bottom: "conv2_2a"
  bottom: "conv2_2b"
  top: "conv2_2"
  eltwise_param {
    operation: MAX
  }
}
layer {
  name: "pool2"
  type: "Pooling"
  bottom: "conv2_2"
  top: "pool2"
  pooling_param {
    pool: MAX
    kernel_size: 4
    stride: 2
  }
}
layer {
  name: "conv3_1a"
  type: "Convolution"
  bottom: "pool2"
  top: "conv3_1a"
  param {
    lr_mult: 1
    decay_mult: 1
  }
  param {
    lr_mult: 1
  }
  convolution_param {
    num_output: 12
    pad: 1
    kernel_size: 3
    stride: 1
    weight_filler {
      type: "xavier"
    }
    bias_filler {
      type: "constant"
    }
  }
}
layer {
  name: "conv3_1b"
  type: "Convolution"
  bottom: "pool2"
  top: "conv3_1b"
  param {
    lr_mult: 1
    decay_mult: 1
  }
  param {
    lr_mult: 1
  }
  convolution_param {
    num_output: 12
    pad: 1
    kernel_size: 3
    stride: 1
    weight_filler {
      type: "xavier"
    }
    bias_filler {
      type: "constant"
    }
  }
}
layer {
  name: "conv3_1"
  type: "Eltwise"
  bottom: "conv3_1a"
  bottom: "conv3_1b"
  top: "conv3_1"
  eltwise_param {
    operation: MAX
  }
}
layer {
  name: "conv3_2a"
  type: "Convolution"
  bottom: "conv3_1"
  top: "conv3_2a"
  param {
    lr_mult: 1
    decay_mult: 1
  }
  param {
    lr_mult: 1
  }
  convolution_param {
    num_output: 12
    pad: 1
    kernel_size: 3
    stride: 1
    weight_filler {
      type: "xavier"
    }
    bias_filler {
      type: "constant"
    }
  }
}
layer {
  name: "conv3_2b"
  type: "Convolution"
  bottom: "conv3_1"
  top: "conv3_2b"
  param {
    lr_mult: 1
    decay_mult: 1
  }
  param {
    lr_mult: 1
  }
  convolution_param {
    num_output: 12
    pad: 1
    kernel_size: 3
    stride: 1
    weight_filler {
      type: "xavier"
    }
    bias_filler {
      type: "constant"
    }
  }
}
layer {
  name: "conv3_2"
  type: "Eltwise"
  bottom: "conv3_2a"
  bottom: "conv3_2b"
  top: "conv3_2"
  eltwise_param {
    operation: MAX
  }
}
layer {
  name: "pool3"
  type: "Pooling"
  bottom: "conv3_2"
  top: "pool3"
  pooling_param {
    pool: MAX
    kernel_size: 2
    stride: 2
  }
}
layer {
  name: "final_drop"
  type: "Dropout"
  bottom: "pool3"
  top: "final_drop"
  dropout_param {
    dropout_ratio: 0.3
  }
}
layer {
  name: "clf"
  type: "InnerProduct"
  bottom: "final_drop"
  top: "clf"
  param {
    lr_mult: 1
    decay_mult: 1
  }
  param {
    lr_mult: 1
  }
  inner_product_param {
    num_output: 10
    weight_filler {
      type: "xavier"
    }
    bias_filler {
      type: "constant"
    }
  }
}
layer {
  name: "accuracy"
  type: "Accuracy"
  bottom: "clf"
  bottom: "label"
  top: "accuracy"
  include {
    phase: TEST
  }
}
layer {
  name: "loss"
  type: "HingeLoss"
  bottom: "clf"
  bottom: "label"
  top: "loss"
  hinge_loss_param {
    norm: L1
  }
}
I1123 22:08:53.532308 12543 layer_factory.hpp:76] Creating layer mnist
I1123 22:08:53.532418 12543 net.cpp:106] Creating Layer mnist
I1123 22:08:53.532426 12543 net.cpp:411] mnist -> data
I1123 22:08:53.532434 12543 net.cpp:411] mnist -> label
I1123 22:08:53.533061 12549 db_lmdb.cpp:38] Opened lmdb ../mnist/mnist_test_lmdb
I1123 22:08:53.533180 12543 data_layer.cpp:41] output data size: 100,1,28,28
I1123 22:08:53.533970 12543 net.cpp:150] Setting up mnist
I1123 22:08:53.533984 12543 net.cpp:157] Top shape: 100 1 28 28 (78400)
I1123 22:08:53.533990 12543 net.cpp:157] Top shape: 100 (100)
I1123 22:08:53.533993 12543 net.cpp:165] Memory required for data: 314000
I1123 22:08:53.533998 12543 layer_factory.hpp:76] Creating layer data_mnist_0_split
I1123 22:08:53.534008 12543 net.cpp:106] Creating Layer data_mnist_0_split
I1123 22:08:53.534011 12543 net.cpp:454] data_mnist_0_split <- data
I1123 22:08:53.534018 12543 net.cpp:411] data_mnist_0_split -> data_mnist_0_split_0
I1123 22:08:53.534028 12543 net.cpp:411] data_mnist_0_split -> data_mnist_0_split_1
I1123 22:08:53.534077 12543 net.cpp:150] Setting up data_mnist_0_split
I1123 22:08:53.534086 12543 net.cpp:157] Top shape: 100 1 28 28 (78400)
I1123 22:08:53.534091 12543 net.cpp:157] Top shape: 100 1 28 28 (78400)
I1123 22:08:53.534096 12543 net.cpp:165] Memory required for data: 941200
I1123 22:08:53.534099 12543 layer_factory.hpp:76] Creating layer label_mnist_1_split
I1123 22:08:53.534106 12543 net.cpp:106] Creating Layer label_mnist_1_split
I1123 22:08:53.534109 12543 net.cpp:454] label_mnist_1_split <- label
I1123 22:08:53.534116 12543 net.cpp:411] label_mnist_1_split -> label_mnist_1_split_0
I1123 22:08:53.534122 12543 net.cpp:411] label_mnist_1_split -> label_mnist_1_split_1
I1123 22:08:53.534159 12543 net.cpp:150] Setting up label_mnist_1_split
I1123 22:08:53.534165 12543 net.cpp:157] Top shape: 100 (100)
I1123 22:08:53.534170 12543 net.cpp:157] Top shape: 100 (100)
I1123 22:08:53.534174 12543 net.cpp:165] Memory required for data: 942000
I1123 22:08:53.534178 12543 layer_factory.hpp:76] Creating layer conv1_1a
I1123 22:08:53.534188 12543 net.cpp:106] Creating Layer conv1_1a
I1123 22:08:53.534193 12543 net.cpp:454] conv1_1a <- data_mnist_0_split_0
I1123 22:08:53.534204 12543 net.cpp:411] conv1_1a -> conv1_1a
I1123 22:08:53.536285 12543 net.cpp:150] Setting up conv1_1a
I1123 22:08:53.536303 12543 net.cpp:157] Top shape: 100 16 28 28 (1254400)
I1123 22:08:53.536306 12543 net.cpp:165] Memory required for data: 5959600
I1123 22:08:53.536319 12543 layer_factory.hpp:76] Creating layer conv1_1b
I1123 22:08:53.536334 12543 net.cpp:106] Creating Layer conv1_1b
I1123 22:08:53.536339 12543 net.cpp:454] conv1_1b <- data_mnist_0_split_1
I1123 22:08:53.536347 12543 net.cpp:411] conv1_1b -> conv1_1b
I1123 22:08:53.538280 12543 net.cpp:150] Setting up conv1_1b
I1123 22:08:53.538296 12543 net.cpp:157] Top shape: 100 16 28 28 (1254400)
I1123 22:08:53.538302 12543 net.cpp:165] Memory required for data: 10977200
I1123 22:08:53.538313 12543 layer_factory.hpp:76] Creating layer conv1_1
I1123 22:08:53.538322 12543 net.cpp:106] Creating Layer conv1_1
I1123 22:08:53.538327 12543 net.cpp:454] conv1_1 <- conv1_1a
I1123 22:08:53.538333 12543 net.cpp:454] conv1_1 <- conv1_1b
I1123 22:08:53.538339 12543 net.cpp:411] conv1_1 -> conv1_1
I1123 22:08:53.538382 12543 net.cpp:150] Setting up conv1_1
I1123 22:08:53.538389 12543 net.cpp:157] Top shape: 100 16 28 28 (1254400)
I1123 22:08:53.538393 12543 net.cpp:165] Memory required for data: 15994800
I1123 22:08:53.538398 12543 layer_factory.hpp:76] Creating layer conv1_1_conv1_1_0_split
I1123 22:08:53.538404 12543 net.cpp:106] Creating Layer conv1_1_conv1_1_0_split
I1123 22:08:53.538408 12543 net.cpp:454] conv1_1_conv1_1_0_split <- conv1_1
I1123 22:08:53.538415 12543 net.cpp:411] conv1_1_conv1_1_0_split -> conv1_1_conv1_1_0_split_0
I1123 22:08:53.538435 12543 net.cpp:411] conv1_1_conv1_1_0_split -> conv1_1_conv1_1_0_split_1
I1123 22:08:53.538475 12543 net.cpp:150] Setting up conv1_1_conv1_1_0_split
I1123 22:08:53.538483 12543 net.cpp:157] Top shape: 100 16 28 28 (1254400)
I1123 22:08:53.538488 12543 net.cpp:157] Top shape: 100 16 28 28 (1254400)
I1123 22:08:53.538492 12543 net.cpp:165] Memory required for data: 26030000
I1123 22:08:53.538496 12543 layer_factory.hpp:76] Creating layer conv1_2a
I1123 22:08:53.538507 12543 net.cpp:106] Creating Layer conv1_2a
I1123 22:08:53.538513 12543 net.cpp:454] conv1_2a <- conv1_1_conv1_1_0_split_0
I1123 22:08:53.538519 12543 net.cpp:411] conv1_2a -> conv1_2a
I1123 22:08:53.540531 12543 net.cpp:150] Setting up conv1_2a
I1123 22:08:53.540546 12543 net.cpp:157] Top shape: 100 16 28 28 (1254400)
I1123 22:08:53.540550 12543 net.cpp:165] Memory required for data: 31047600
I1123 22:08:53.540562 12543 layer_factory.hpp:76] Creating layer conv1_2b
I1123 22:08:53.540576 12543 net.cpp:106] Creating Layer conv1_2b
I1123 22:08:53.540583 12543 net.cpp:454] conv1_2b <- conv1_1_conv1_1_0_split_1
I1123 22:08:53.540593 12543 net.cpp:411] conv1_2b -> conv1_2b
I1123 22:08:53.542439 12543 net.cpp:150] Setting up conv1_2b
I1123 22:08:53.542451 12543 net.cpp:157] Top shape: 100 16 28 28 (1254400)
I1123 22:08:53.542455 12543 net.cpp:165] Memory required for data: 36065200
I1123 22:08:53.542464 12543 layer_factory.hpp:76] Creating layer conv1_2
I1123 22:08:53.542472 12543 net.cpp:106] Creating Layer conv1_2
I1123 22:08:53.542477 12543 net.cpp:454] conv1_2 <- conv1_2a
I1123 22:08:53.542484 12543 net.cpp:454] conv1_2 <- conv1_2b
I1123 22:08:53.542490 12543 net.cpp:411] conv1_2 -> conv1_2
I1123 22:08:53.542531 12543 net.cpp:150] Setting up conv1_2
I1123 22:08:53.542538 12543 net.cpp:157] Top shape: 100 16 28 28 (1254400)
I1123 22:08:53.542542 12543 net.cpp:165] Memory required for data: 41082800
I1123 22:08:53.542546 12543 layer_factory.hpp:76] Creating layer pool1
I1123 22:08:53.542556 12543 net.cpp:106] Creating Layer pool1
I1123 22:08:53.542559 12543 net.cpp:454] pool1 <- conv1_2
I1123 22:08:53.542565 12543 net.cpp:411] pool1 -> pool1
I1123 22:08:53.543143 12543 net.cpp:150] Setting up pool1
I1123 22:08:53.543154 12543 net.cpp:157] Top shape: 100 16 13 13 (270400)
I1123 22:08:53.543157 12543 net.cpp:165] Memory required for data: 42164400
I1123 22:08:53.543161 12543 layer_factory.hpp:76] Creating layer pool1_pool1_0_split
I1123 22:08:53.543169 12543 net.cpp:106] Creating Layer pool1_pool1_0_split
I1123 22:08:53.543172 12543 net.cpp:454] pool1_pool1_0_split <- pool1
I1123 22:08:53.543179 12543 net.cpp:411] pool1_pool1_0_split -> pool1_pool1_0_split_0
I1123 22:08:53.543185 12543 net.cpp:411] pool1_pool1_0_split -> pool1_pool1_0_split_1
I1123 22:08:53.543226 12543 net.cpp:150] Setting up pool1_pool1_0_split
I1123 22:08:53.543232 12543 net.cpp:157] Top shape: 100 16 13 13 (270400)
I1123 22:08:53.543238 12543 net.cpp:157] Top shape: 100 16 13 13 (270400)
I1123 22:08:53.543241 12543 net.cpp:165] Memory required for data: 44327600
I1123 22:08:53.543246 12543 layer_factory.hpp:76] Creating layer conv2_1a
I1123 22:08:53.543256 12543 net.cpp:106] Creating Layer conv2_1a
I1123 22:08:53.543261 12543 net.cpp:454] conv2_1a <- pool1_pool1_0_split_0
I1123 22:08:53.543267 12543 net.cpp:411] conv2_1a -> conv2_1a
I1123 22:08:53.545166 12543 net.cpp:150] Setting up conv2_1a
I1123 22:08:53.545177 12543 net.cpp:157] Top shape: 100 16 13 13 (270400)
I1123 22:08:53.545181 12543 net.cpp:165] Memory required for data: 45409200
I1123 22:08:53.545192 12543 layer_factory.hpp:76] Creating layer conv2_1b
I1123 22:08:53.545202 12543 net.cpp:106] Creating Layer conv2_1b
I1123 22:08:53.545208 12543 net.cpp:454] conv2_1b <- pool1_pool1_0_split_1
I1123 22:08:53.545217 12543 net.cpp:411] conv2_1b -> conv2_1b
I1123 22:08:53.547118 12543 net.cpp:150] Setting up conv2_1b
I1123 22:08:53.547129 12543 net.cpp:157] Top shape: 100 16 13 13 (270400)
I1123 22:08:53.547134 12543 net.cpp:165] Memory required for data: 46490800
I1123 22:08:53.547154 12543 layer_factory.hpp:76] Creating layer conv2_1
I1123 22:08:53.547164 12543 net.cpp:106] Creating Layer conv2_1
I1123 22:08:53.547171 12543 net.cpp:454] conv2_1 <- conv2_1a
I1123 22:08:53.547176 12543 net.cpp:454] conv2_1 <- conv2_1b
I1123 22:08:53.547183 12543 net.cpp:411] conv2_1 -> conv2_1
I1123 22:08:53.547232 12543 net.cpp:150] Setting up conv2_1
I1123 22:08:53.547240 12543 net.cpp:157] Top shape: 100 16 13 13 (270400)
I1123 22:08:53.547245 12543 net.cpp:165] Memory required for data: 47572400
I1123 22:08:53.547248 12543 layer_factory.hpp:76] Creating layer conv2_1_conv2_1_0_split
I1123 22:08:53.547255 12543 net.cpp:106] Creating Layer conv2_1_conv2_1_0_split
I1123 22:08:53.547258 12543 net.cpp:454] conv2_1_conv2_1_0_split <- conv2_1
I1123 22:08:53.547266 12543 net.cpp:411] conv2_1_conv2_1_0_split -> conv2_1_conv2_1_0_split_0
I1123 22:08:53.547273 12543 net.cpp:411] conv2_1_conv2_1_0_split -> conv2_1_conv2_1_0_split_1
I1123 22:08:53.547309 12543 net.cpp:150] Setting up conv2_1_conv2_1_0_split
I1123 22:08:53.547318 12543 net.cpp:157] Top shape: 100 16 13 13 (270400)
I1123 22:08:53.547324 12543 net.cpp:157] Top shape: 100 16 13 13 (270400)
I1123 22:08:53.547327 12543 net.cpp:165] Memory required for data: 49735600
I1123 22:08:53.547332 12543 layer_factory.hpp:76] Creating layer conv2_2a
I1123 22:08:53.547343 12543 net.cpp:106] Creating Layer conv2_2a
I1123 22:08:53.547346 12543 net.cpp:454] conv2_2a <- conv2_1_conv2_1_0_split_0
I1123 22:08:53.547355 12543 net.cpp:411] conv2_2a -> conv2_2a
I1123 22:08:53.549311 12543 net.cpp:150] Setting up conv2_2a
I1123 22:08:53.549324 12543 net.cpp:157] Top shape: 100 16 13 13 (270400)
I1123 22:08:53.549329 12543 net.cpp:165] Memory required for data: 50817200
I1123 22:08:53.549336 12543 layer_factory.hpp:76] Creating layer conv2_2b
I1123 22:08:53.549347 12543 net.cpp:106] Creating Layer conv2_2b
I1123 22:08:53.549352 12543 net.cpp:454] conv2_2b <- conv2_1_conv2_1_0_split_1
I1123 22:08:53.549361 12543 net.cpp:411] conv2_2b -> conv2_2b
I1123 22:08:53.551372 12543 net.cpp:150] Setting up conv2_2b
I1123 22:08:53.551383 12543 net.cpp:157] Top shape: 100 16 13 13 (270400)
I1123 22:08:53.551388 12543 net.cpp:165] Memory required for data: 51898800
I1123 22:08:53.551395 12543 layer_factory.hpp:76] Creating layer conv2_2
I1123 22:08:53.551404 12543 net.cpp:106] Creating Layer conv2_2
I1123 22:08:53.551409 12543 net.cpp:454] conv2_2 <- conv2_2a
I1123 22:08:53.551415 12543 net.cpp:454] conv2_2 <- conv2_2b
I1123 22:08:53.551421 12543 net.cpp:411] conv2_2 -> conv2_2
I1123 22:08:53.551466 12543 net.cpp:150] Setting up conv2_2
I1123 22:08:53.551475 12543 net.cpp:157] Top shape: 100 16 13 13 (270400)
I1123 22:08:53.551477 12543 net.cpp:165] Memory required for data: 52980400
I1123 22:08:53.551481 12543 layer_factory.hpp:76] Creating layer pool2
I1123 22:08:53.551489 12543 net.cpp:106] Creating Layer pool2
I1123 22:08:53.551493 12543 net.cpp:454] pool2 <- conv2_2
I1123 22:08:53.551501 12543 net.cpp:411] pool2 -> pool2
I1123 22:08:53.552086 12543 net.cpp:150] Setting up pool2
I1123 22:08:53.552098 12543 net.cpp:157] Top shape: 100 16 6 6 (57600)
I1123 22:08:53.552101 12543 net.cpp:165] Memory required for data: 53210800
I1123 22:08:53.552105 12543 layer_factory.hpp:76] Creating layer pool2_pool2_0_split
I1123 22:08:53.552112 12543 net.cpp:106] Creating Layer pool2_pool2_0_split
I1123 22:08:53.552116 12543 net.cpp:454] pool2_pool2_0_split <- pool2
I1123 22:08:53.552124 12543 net.cpp:411] pool2_pool2_0_split -> pool2_pool2_0_split_0
I1123 22:08:53.552131 12543 net.cpp:411] pool2_pool2_0_split -> pool2_pool2_0_split_1
I1123 22:08:53.552172 12543 net.cpp:150] Setting up pool2_pool2_0_split
I1123 22:08:53.552180 12543 net.cpp:157] Top shape: 100 16 6 6 (57600)
I1123 22:08:53.552186 12543 net.cpp:157] Top shape: 100 16 6 6 (57600)
I1123 22:08:53.552188 12543 net.cpp:165] Memory required for data: 53671600
I1123 22:08:53.552192 12543 layer_factory.hpp:76] Creating layer conv3_1a
I1123 22:08:53.552202 12543 net.cpp:106] Creating Layer conv3_1a
I1123 22:08:53.552206 12543 net.cpp:454] conv3_1a <- pool2_pool2_0_split_0
I1123 22:08:53.552227 12543 net.cpp:411] conv3_1a -> conv3_1a
I1123 22:08:53.554169 12543 net.cpp:150] Setting up conv3_1a
I1123 22:08:53.554180 12543 net.cpp:157] Top shape: 100 12 6 6 (43200)
I1123 22:08:53.554185 12543 net.cpp:165] Memory required for data: 53844400
I1123 22:08:53.554196 12543 layer_factory.hpp:76] Creating layer conv3_1b
I1123 22:08:53.554208 12543 net.cpp:106] Creating Layer conv3_1b
I1123 22:08:53.554215 12543 net.cpp:454] conv3_1b <- pool2_pool2_0_split_1
I1123 22:08:53.554224 12543 net.cpp:411] conv3_1b -> conv3_1b
I1123 22:08:53.556115 12543 net.cpp:150] Setting up conv3_1b
I1123 22:08:53.556129 12543 net.cpp:157] Top shape: 100 12 6 6 (43200)
I1123 22:08:53.556133 12543 net.cpp:165] Memory required for data: 54017200
I1123 22:08:53.556141 12543 layer_factory.hpp:76] Creating layer conv3_1
I1123 22:08:53.556150 12543 net.cpp:106] Creating Layer conv3_1
I1123 22:08:53.556155 12543 net.cpp:454] conv3_1 <- conv3_1a
I1123 22:08:53.556161 12543 net.cpp:454] conv3_1 <- conv3_1b
I1123 22:08:53.556167 12543 net.cpp:411] conv3_1 -> conv3_1
I1123 22:08:53.556213 12543 net.cpp:150] Setting up conv3_1
I1123 22:08:53.556221 12543 net.cpp:157] Top shape: 100 12 6 6 (43200)
I1123 22:08:53.556224 12543 net.cpp:165] Memory required for data: 54190000
I1123 22:08:53.556228 12543 layer_factory.hpp:76] Creating layer conv3_1_conv3_1_0_split
I1123 22:08:53.556236 12543 net.cpp:106] Creating Layer conv3_1_conv3_1_0_split
I1123 22:08:53.556242 12543 net.cpp:454] conv3_1_conv3_1_0_split <- conv3_1
I1123 22:08:53.556248 12543 net.cpp:411] conv3_1_conv3_1_0_split -> conv3_1_conv3_1_0_split_0
I1123 22:08:53.556255 12543 net.cpp:411] conv3_1_conv3_1_0_split -> conv3_1_conv3_1_0_split_1
I1123 22:08:53.556298 12543 net.cpp:150] Setting up conv3_1_conv3_1_0_split
I1123 22:08:53.556304 12543 net.cpp:157] Top shape: 100 12 6 6 (43200)
I1123 22:08:53.556310 12543 net.cpp:157] Top shape: 100 12 6 6 (43200)
I1123 22:08:53.556314 12543 net.cpp:165] Memory required for data: 54535600
I1123 22:08:53.556318 12543 layer_factory.hpp:76] Creating layer conv3_2a
I1123 22:08:53.556329 12543 net.cpp:106] Creating Layer conv3_2a
I1123 22:08:53.556334 12543 net.cpp:454] conv3_2a <- conv3_1_conv3_1_0_split_0
I1123 22:08:53.556341 12543 net.cpp:411] conv3_2a -> conv3_2a
I1123 22:08:53.558357 12543 net.cpp:150] Setting up conv3_2a
I1123 22:08:53.558375 12543 net.cpp:157] Top shape: 100 12 6 6 (43200)
I1123 22:08:53.558380 12543 net.cpp:165] Memory required for data: 54708400
I1123 22:08:53.558388 12543 layer_factory.hpp:76] Creating layer conv3_2b
I1123 22:08:53.558399 12543 net.cpp:106] Creating Layer conv3_2b
I1123 22:08:53.558404 12543 net.cpp:454] conv3_2b <- conv3_1_conv3_1_0_split_1
I1123 22:08:53.558413 12543 net.cpp:411] conv3_2b -> conv3_2b
I1123 22:08:53.560291 12543 net.cpp:150] Setting up conv3_2b
I1123 22:08:53.560302 12543 net.cpp:157] Top shape: 100 12 6 6 (43200)
I1123 22:08:53.560305 12543 net.cpp:165] Memory required for data: 54881200
I1123 22:08:53.560313 12543 layer_factory.hpp:76] Creating layer conv3_2
I1123 22:08:53.560322 12543 net.cpp:106] Creating Layer conv3_2
I1123 22:08:53.560327 12543 net.cpp:454] conv3_2 <- conv3_2a
I1123 22:08:53.560333 12543 net.cpp:454] conv3_2 <- conv3_2b
I1123 22:08:53.560339 12543 net.cpp:411] conv3_2 -> conv3_2
I1123 22:08:53.560384 12543 net.cpp:150] Setting up conv3_2
I1123 22:08:53.560392 12543 net.cpp:157] Top shape: 100 12 6 6 (43200)
I1123 22:08:53.560396 12543 net.cpp:165] Memory required for data: 55054000
I1123 22:08:53.560400 12543 layer_factory.hpp:76] Creating layer pool3
I1123 22:08:53.560410 12543 net.cpp:106] Creating Layer pool3
I1123 22:08:53.560413 12543 net.cpp:454] pool3 <- conv3_2
I1123 22:08:53.560420 12543 net.cpp:411] pool3 -> pool3
I1123 22:08:53.561101 12543 net.cpp:150] Setting up pool3
I1123 22:08:53.561112 12543 net.cpp:157] Top shape: 100 12 3 3 (10800)
I1123 22:08:53.561116 12543 net.cpp:165] Memory required for data: 55097200
I1123 22:08:53.561120 12543 layer_factory.hpp:76] Creating layer final_drop
I1123 22:08:53.561127 12543 net.cpp:106] Creating Layer final_drop
I1123 22:08:53.561149 12543 net.cpp:454] final_drop <- pool3
I1123 22:08:53.561156 12543 net.cpp:411] final_drop -> final_drop
I1123 22:08:53.561202 12543 net.cpp:150] Setting up final_drop
I1123 22:08:53.561209 12543 net.cpp:157] Top shape: 100 12 3 3 (10800)
I1123 22:08:53.561213 12543 net.cpp:165] Memory required for data: 55140400
I1123 22:08:53.561218 12543 layer_factory.hpp:76] Creating layer clf
I1123 22:08:53.561229 12543 net.cpp:106] Creating Layer clf
I1123 22:08:53.561233 12543 net.cpp:454] clf <- final_drop
I1123 22:08:53.561241 12543 net.cpp:411] clf -> clf
I1123 22:08:53.561359 12543 net.cpp:150] Setting up clf
I1123 22:08:53.561367 12543 net.cpp:157] Top shape: 100 10 (1000)
I1123 22:08:53.561370 12543 net.cpp:165] Memory required for data: 55144400
I1123 22:08:53.561378 12543 layer_factory.hpp:76] Creating layer clf_clf_0_split
I1123 22:08:53.561384 12543 net.cpp:106] Creating Layer clf_clf_0_split
I1123 22:08:53.561388 12543 net.cpp:454] clf_clf_0_split <- clf
I1123 22:08:53.561393 12543 net.cpp:411] clf_clf_0_split -> clf_clf_0_split_0
I1123 22:08:53.561400 12543 net.cpp:411] clf_clf_0_split -> clf_clf_0_split_1
I1123 22:08:53.561442 12543 net.cpp:150] Setting up clf_clf_0_split
I1123 22:08:53.561450 12543 net.cpp:157] Top shape: 100 10 (1000)
I1123 22:08:53.561455 12543 net.cpp:157] Top shape: 100 10 (1000)
I1123 22:08:53.561458 12543 net.cpp:165] Memory required for data: 55152400
I1123 22:08:53.561461 12543 layer_factory.hpp:76] Creating layer accuracy
I1123 22:08:53.561471 12543 net.cpp:106] Creating Layer accuracy
I1123 22:08:53.561476 12543 net.cpp:454] accuracy <- clf_clf_0_split_0
I1123 22:08:53.561481 12543 net.cpp:454] accuracy <- label_mnist_1_split_0
I1123 22:08:53.561487 12543 net.cpp:411] accuracy -> accuracy
…
